results/phase_aae_20s/fold1/final_netD.pth (torch, 11663 bytes, 7 tensors)

model.0.weight f4 [32, 4]
00000000: faa5 f03d 400d a03e 3aca 56be d10d 01bf
00000010: a1f6 c3be 5c75 ccbc f17c e03e b12f 3c3c
00000020: d472 04bd 2d73 0ebf 78b1 923e 5ada 523e
00000030: 7a27 b6be a13d 3b3c f970 a63e 88a4 553e
00000040: bf11 4ebe 0dba 82be 226b e4be 8035 74bd
00000050: ec47 3cbe 2071 17be 2649 ec3e f840 acbe
00000060: ac75 e33c c2ac b8be fe56 9e3d 3a3f 333e
00000070: 6c87 663e 8c68 b13c afee e7be 4c7d b3bd
00000080: 9d1b f13d be8c c93e a737 4c3d 0be2 e03d
00000090: f5c6 a63e 8c59 993d fc04 f2bd 0fb9 9ebe
000000a0: ea32 34be c52c 92be 28c2 eabd f283 b5be
000000b0: 02f2 b3be ee3e 05bf 4246 ba3e 81f2 55bc
000000c0: 9021 1a3f 4655 ac3b 7905 93bd 09c3 843e
000000d0: 02f8 733e 7112 dbbd d3fc c13d a014 88bd
000000e0: 04d7 a93d 243f d33e da32 b73d 5bde a73e
000000f0: 25bc e9be afe9 bdbd 74fd fd3e 5703 9c3e
00000100: f9ae dabe a91e 773e fe3e 88be 2f2f 9a3e
00000110: 34a6 94be b26f 203f cb1e 783d a55f eb3e
00000120: 2408 cbbe 6cf8 93be 436d 943e 5697 203e
00000130: 5584 fc3e 69ee 9d3d f3d5 eb3e fb6e 53be
00000140: a378 acbe e1c6 093f 65ec 02be 7615 56be
00000150: ce82 f03e 121c 63ba 4147 28bf f416 a6bc
00000160: c25a 2fbf 8dc5 40be a7a7 853e 2762 63be
00000170: a790 75be abc5 0b3f e2b3 973e 7ab3 98be
00000180: b319 f73d d903 a4be 9cf1 813d 54a3 883d
00000190: 6edf ee3e b1e1 2ebd 7ad9 15bf 122b aabe
000001a0: cd35 e73e baba 4ebe 0be6 3cbd e7f1 b83e
000001b0: fa2a aebe 9bce 793e 5723 09bf 1967 8e3e
000001c0: f093 613e a608 ae3e 1e7f 0bbe edb9 51be
000001d0: 2733 663e 35e6 c03e 75bf 033e 26ab e1be
000001e0: 8fcf 44bc 897c 2bbf f0e3 783e ecd9 fdbe
000001f0: 6e63 d63e f5d1 823e 5fae 283f 1daf bcbe
0.117504075 0.3126011 -0.20975581 -0.5041171 -0.382741 -0.024958305 0.43845323 0.01148598
-0.03233607 -0.55644494 0.28651023 0.20591107 -0.35576993 0.011428268 0.32508066 0.20863545
-0.20123957 -0.2553257 -0.44612986 -0.059621334 -0.18386811 -0.14789248 0.46149558 -0.33643317
0.027766071 -0.36069304 0.07731436 0.17504588 0.22512597 0.021656297 -0.4529929 -0.08764133
0.11772845 0.3936519 0.04985776 0.10980614 0.32573667 0.07487783 -0.11817357 -0.31000564
-0.17597547 -0.2854978 -0.114628136 -0.3545223 -0.35145575 -0.5204915 0.36381727 -0.013058306
0.6020746 0.005259189 -0.07178778 0.2593005 0.23825076 -0.10696877 0.094720505 -0.06644559
0.08292964 0.4125911 0.08945246 0.3278683 -0.45651355 -0.09273087 0.49607432 0.30471298
-0.4271162 0.2413279 -0.2661056 0.30114123 -0.29033053 0.62670434 0.06057624 0.45971408
-0.39654648 -0.28900468 0.2898961 0.1568273 0.4931971 0.07711489 0.46061668 -0.20647804
-0.3368579 0.5381909 -0.1278549 -0.20906624 0.46974796 -0.00086635456 -0.65733725 -0.020274617
-0.6849786 -0.1882536 0.2610447 -0.22205411 -0.23980962 0.5459849 0.29629427 -0.2982443
0.120654486 -0.32034186 0.063449115 0.06671777 0.46654838 -0.042695705 -0.5853497 -0.33235985
0.45158234 -0.20188418 -0.046117824 0.36122057 -0.34017164 0.2439522 -0.5356955 0.27813032
0.2202909 0.33990973 -0.1362271 -0.20481081 0.2248045 0.37675634 0.12866004 -0.44075888
-0.012012376 -0.669869 0.24305701 -0.49580324 0.41872734 0.2555081 0.6589107 -0.3685235

model.0.bias f4 [32]
00000000: cd87 b23e 42ee b9be 4d6f ebbe 4704 89be
00000010: e799 e0bc fb60 0ebe 6987 0c3d 9500 fe3e
00000020: eb94 07bd 6dca bbbe 8fad 79be 99a1 f4be
00000030: aa73 f33e 4047 133f 4222 42bd 064a 81bd
00000040: b09e acbe cec0 ddbd f020 88be 15d2 a4be
00000050: eab4 d53e a53e 53be 704a 9fbe ee05 fdba
00000060: e6bc c83d 9208 8b3d 2eda cebe 7def acbd
00000070: 2a59 623e b459 873e f863 853d f15e 35be
0.34869233 -0.3631459 -0.45983353 -0.26761076 -0.027417136 -0.13904183 0.034308825 0.4960982
-0.033101004 -0.36677876 -0.24382614 -0.4777954 0.47549182 0.57530594 -0.047395952 -0.06312947
-0.3371482 -0.1082779 -0.2658763 -0.3219153 0.4173959 -0.20629366 -0.3111148 -0.0019304135
0.098016545 0.06788744 -0.40400833 -0.08444116 0.22104326 0.26435626 0.06513208 -0.17711999

model.2.weight f4 [32, 32]
00000000: ba8a 1bbe 1610 25be ba1b 6abd c962 803d
00000010: dc33 1abe baaf af3d 0eed 763d f5f4 273e
00000020: edb6 d6bd ec8e cbbb 6a4a d7bd b6dc d5bd
00000030: 5286 c7bd 8e54 d23d 08ef 133e ffa6 8abd
00000040: 6fdb e93c 785b a8bd 2db0 09bc 7f2b e13d
00000050: c0af e93d 8f2c b23a 5eb4 623d 3107 4cbe
00000060: 7987 2e3c 138f d83b 34e2 19be 8c69 e43d
00000070: 1ac5 c4bc c4e0 d6bd d319 acbd 93f5 8fbd
00000080: 69c0 2b3b f660 373c 35fd 0f3e aa38 f0bd
00000090: 7971 d43d 4be1 413e bb78 1ebc 0034 cc3d
000000a0: 31c3 803d 2e2e 033e 5b40 a73d da51 0e3e
000000b0: e272 903d 2427 ecbc 20f3 31be b669 983d
000000c0: 1ea8 da3b a7d9 533d eaee 473e de84 e43b
000000d0: 90f1 76b9 466c 673d 9d31 cfbd a78f 92bd
000000e0: 08f5 1a3e 1d82 fa3d fbaf 5b3c 965b 0bbe
000000f0: 492a 583d f27f a6bd 5f65 863e 2fba 76bb
00000100: b0b8 e43d 2070 9e3d fca0 54be 7d8e 3dbd
00000110: af38 893c 18d2 23be 26c6 92be 4713 d83d
00000120: 5826 d23d 0fdd d13d 2bf3 b8bc 7946 b7bd
00000130: 9445 b13d 0868 e3bd a92b 6e3e f807 d23d
00000140: f0bf 9f3e 86d8 903e 283e 91bd e941 893c
00000150: 05f8 413e f924 253e fc9c d2bd a5f9 7bbd
00000160: 2f11 0ebe c91d 4e3e e86e 10be 25cc 9a3e
00000170: bf27 2e3e 0fec 063d 1ad0 e0bd 0b31 6eba
00000180: 07dd afbd 3729 f1bd 866a 233c 086c 8b3d
00000190: 8d6a c03d 157e eb3d 1f02 3ebe 50af debd
000001a0: 6b2d 4fbb f7e0 473e 7f9f 8ebd fe7f dcbc
000001b0: 97d7 b8bd e39e 423d d31a cc3d aed4 66bc
000001c0: 3c18 cb3c ba92 e93d 6f70 0e3d 10d8 0d3e
000001d0: d296 113e 2fa2 813d a803 8d3e 95ae e03d
000001e0: 446b 36bd 93cf ef3d ae7f 61bd b1b1 9ebd
000001f0: b923 323e 9cd3 523b 18d4 1a3e 419f 013d
00000200: dae1 4bbe dc00 1f3e bb9b 93bd 8d76 7c3e
00000210: fbc5 2fbd 4cde 5bbd 65f3 a43d bf38 3dbe
00000220: ec24 91bc 6cf9 26bd fca0 2abd 8085 c3bc
00000230: 7409 28be da98 8cbc 71f4 1b3e 2bb6 2c3d
00000240: 8b87 433e f07f be3d a8b0 843e 1a19 9b3c
00000250: 38b9 71bd 6dac 123d 47a2 4f3e 66b0 b43d
00000260: 7efb 1ebe 0874 91bd fee1 463d ae2f c2bd
00000270: 2a2e 84bd 1713 a93d 56ce 95bd 0718 a7bd
00000280: b51d d73d 5c2e 46bd a2a0 bb3c 650f c03c
00000290: 1957 c2bd ffbd 1b3d 9e6e 323e b295 ebbd
000002a0: 8258 c9bd 4f91 3b3e a47f a0bd de46 933d
000002b0: 7f69 d13d 4cf7 8439 aee4 aa3d 698d e33b
000002c0: a4bb 02be 509f acbd 219b 24be 6c08 373e
000002d0: 9e1e 94be c80d 50be 33a3 17be 73ba b3bd
000002e0: 9bc4 a9bd df12 0fbe ed13 22bc 8682 9cbe
000002f0: de70 0ebe 1ad3 a93d 87cc cfbd 9142 2ebd
00000300: 07bc 5f3d 13d9 aebd 54f0 5bbe 206b f23d
00000310: a5c3 68be 8e46 053e ac2e 823c b983 09be
00000320: 44c1 7abe 6d64 9abe 7367 38bc 4dce bfbd
00000330: 1a2e 97bd 6902 53be 6fb8 753d 4e47 73bd
00000340: ba2d 37bd 328e 77be c96c b1bd 7771 fabc
00000350: 3cd7 633d f91a b0be 9e72 143d e0aa f4bc
00000360: 67b7 b4bd fa95 b5bd 83df fabd ccbb 0fbd
00000370: 66bb 02be 27c9 a83d 1da4 52be 0d81 17be
00000380: 943c 96bd 0905 0dbe 0a99 4bbe 5ad7 6fbe
00000390: 825a f9ba e321 9cbd 213e 543e ad82 e83c
000003a0: 54c9 20be 6360 2f3c 4209 c63d 349a 6dbe
000003b0: 2ab7 833e 380b b93d d064 a43c 6fb0 08bd
000003c0: 891b 003e 9e7c f5bd a7d7 02be d04e cb3d
000003d0: 872d 3cbe 5555 52bd 2b91 d3bc 0509 8bbc
000003e0: cc85 20bb 5eed de3b 8c78 81bd c3b6 f2bb
000003f0: 80f4 e03d d5a7 7a3d ce1b 05be 0ba8 b93d
-0.15189639 -0.16119418 -0.05715535 0.06268842 -0.15058845 0.08578439 0.060284667 0.16402037
-0.10484109 -0.006212106 -0.1051224 -0.10442488 -0.097424164 0.10270034 0.14446652 -0.06770133
0.028547017 -0.08220571 -0.00840382 0.10994624 0.11410475 0.0013593602 0.055347793 -0.19924618
0.010652416 0.0066088527 -0.15027696 0.11152944 -0.024019767 -0.104920894 -0.08403363 -0.070292614
0.0026207215 0.011192551 0.14061435 -0.11729558 0.10373206 0.18933599 -0.009672339 0.09970856
0.0628723 0.12810585 0.08166572 0.13898411 0.07053162 -0.028827257 -0.17377901 0.07442038
0.006672873 0.05172124 0.19524732 0.006973847 -0.00023550377 0.056499742 -0.10116885 -0.07156306
0.15132535 0.122318484 0.013408656 -0.13609156 0.0527747 -0.081298724 0.26249215 -0.0037647595
0.11168039 0.0773623 -0.20764536 -0.046278466 0.016750662 -0.15998113 -0.286668 0.10550552
0.1026122 0.10247242 -0.022576889 -0.089489885 0.08655849 -0.11103827 0.23258843 0.10255426
0.31201124 0.28290194 -0.070919335 0.016755061 0.18942268 0.16127385 -0.10283849 -0.061517376
-0.13873743 0.2012855 -0.14104807 0.30233875 0.1700735 0.032939967 -0.10977192 -0.00090862875
-0.085870795 -0.11775439 0.009974128 0.06807715 0.09395323 0.114986576 -0.18555497 -0.10873282
-0.0031612765 0.19519411 -0.06964015 -0.0269165 -0.090254955 0.047514807 0.09966054 -0.014088793
0.02479183 0.11404939 0.034775194 0.13851953 0.1421769 0.06329762 0.27541852 0.10970799
-0.04453589 0.117095135 -0.055053405 -0.07748736 0.1739644 0.0032169586 0.1511997 0.031646017
-0.19910374 0.15527672 -0.072074376 0.24654599 -0.04291342 -0.053678796 0.08054236 -0.18478678
-0.017717801 -0.04076521 -0.041657433 -0.023867369 -0.16409856 -0.017162729 0.15229966 0.042165916
0.19094674 0.09301746 0.25916028 0.018932868 -0.05901453 0.03580897 0.20276748 0.08822708
-0.15525624 -0.07102209 0.048555367 -0.094817504 -0.064541176 0.08255594 -0.07314746 -0.0815888
0.10503713 -0.048384055 0.022903744 0.02344484 -0.09489269 0.03802299 0.1742501 -0.115031615
-0.09831335 0.1831715 -0.078368455 0.07191251 0.102252 0.00025361252 0.083443984 0.0069443476
-0.12766892 -0.08428824 -0.16074802 0.17874306 -0.2892961 -0.20317757 -0.1480835 -0.08775797
-0.08289453 -0.13972043 -0.009892446 -0.3056833 -0.13910243 0.082922176 -0.10146432 -0.04254395
0.054622676 -0.08537497 -0.21478397 0.11836839 -0.22730882 0.13015196 0.015891396 -0.13429154
-0.24487787 -0.30154744 -0.011255133 -0.093655206 -0.0738184 -0.20606388 0.059990343 -0.059394173
-0.044721343 -0.24175337 -0.08663327 -0.030571682 0.055625185 -0.34395579 0.03624212 -0.029866636
-0.08824044 -0.088664964 -0.12249663 -0.035091206 -0.127668 0.08241492 -0.20570417 -0.14795323
-0.07335773 -0.13771452 -0.19882599 -0.23421994 -0.0019024166 -0.07623651 0.20726825 0.028382624
-0.157018 0.010704133 0.096697345 -0.23203355 0.2572568 0.09035343 0.020067602 -0.033371385
0.12510504 -0.119866595 -0.12777577 0.09927142 -0.18376742 -0.05135091 -0.025826057 -0.016972074
-0.0024493812 0.0068031987 -0.063218206 -0.007407041 0.10984135 0.061195213 -0.12998888 0.09065255

model.2.bias f4 [32]
00000000: 0ae6 8ebd 7d2c 883e 2633 953c 7901 9dbd
00000010: cac6 0cbe 2f44 10bd 1a11 a3bd 3fe0 0a3c
00000020: b36c b5bd 7543 cd3d 9267 893d b0c5 78bd
00000030: 39f8 c6bc 9171 54be dd85 e2bd 0e4d 7cbe
00000040: 0e2f 68bd 5a3a 8f3e 0166 ce3d 19ba 6ebd
00000050: 95a3 843c 5cc0 c0bd f06b 0a3e a52a fb3d
00000060: 0512 e5bd e352 213e 8c8f 25be 6c97 853d
00000070: da7c 7cbe 06eb 0e3e f746 f6bd 9995 343e
-0.0697747 0.26596442 0.018212866 -0.076662965 -0.13747707 -0.035221275 -0.07962246 0.008476316
-0.08858623 0.10022632 0.067092076 -0.060735404 -0.024288284 -0.20746447 -0.11060689 -0.24638769
-0.0566855 0.27974206 0.100780495 -0.058282945 0.016191283 -0.0941169 0.13517737 0.12263993
-0.111850776 0.15754275 -0.1616804 0.06523022 -0.24657002 0.13956842 -0.12025254 0.17635192

model.4.weight f4 [32, 32]
00000000: dee6 1f3e 5656 50be 8e8c 513e 3beb 25bd
00000010: 121d 31be ef05 7a3c a4d5 33be 1d9d ce3d
00000020: a3d6 ddbd 6396 cbbc ec3c b43c a891 853d
00000030: 0966 4e3d 6919 d83d 23ad 2abe 6ae4 0cbe
00000040: 7979 cc3d e576 0dbe d789 273e 1ca6 913d
00000050: 4f81 86bd b12e e03d 453a 0bbd 9b34 7dbd
00000060: d16b ff3d a132 0cbd 0fb5 8dbd 171e 433c
00000070: a5dc 153e be2d 07be 4bc0 00be c63f 34be
00000080: 3301 a0bd a657 0fbd d460 103e 97f2 343e
00000090: f4a4 343e e370 4bbc 2af0 a73d 8484 6bbd
000000a0: f078 fabd e4ff a53d a1dd 53be 5d6b 6abd
000000b0: 8421 07be 7470 773c dca0 dcbd 1824 cf3c
000000c0: 65e6 b0bd 0a7b c2bd 2d10 d4bd 4896 a6bd
000000d0: c009 cc3c ca6c 223e 4930 92bd b160 e0bd
000000e0: 1fb7 86bc 9538 62be 70b1 b3bd 1985 8fbc
000000f0: 5c0a 313d ea99 2ebc 02b5 4b3d 2843 143c
00000100: e140 32bc 01d9 14be 6606 a83c 837f 3abe
00000110: eb08 38be 0493 d03d fe79 3dbc e3f0 8b3c
00000120: 94ad 2cbe ace7 343d 74cd 0f3e ab41 14be
00000130: 5462 1c3d f882 4cbc 9a8e 1abe c454 763b
00000140: 6e54 063c fbf6 063e 701e 363c 09fe 11be
00000150: ef02 bc3d 9e3e fbbd a22c eebd e973 d4bd
00000160: 1253 dd3d 4cfd 343e fcef 16be 8792 45bd
00000170: 982c 123e 81d7 923c 705d f5bc c37f 1cbd
00000180: 2c90 1bbe 5dd2 ac3d 6c41 383e 4fbc a63b
00000190: 94c9 973d 9582 b43d 7b93 06be 50b8 e53d
000001a0: f61d 9dbd b3dd f1bc 6d20 bbbd 751e 9f3d
000001b0: c738 d3bd d4ec fabd ab90 333e 684b 04be
000001c0: 6515 31bd 068b dbbb 19ec 1bbe f20e 0bbe
000001d0: 2ef1 cfbd 8ead 07bd 39ac 3f3e 2dd0 61bc
000001e0: 53fe 1fbe 5e40 143e b5fd 7b3c eba5 99bd
000001f0: 6bcf 6fbe a9c0 4a3e 3564 21be c4a1 993c
00000200: c543 3dbd e872 a3bd 5a0b e63d 28f0 3fbe
00000210: 8529 853d 9145 8f3c a9c7 f13d 417a 19be
00000220: 73ee cbbd 8b16 87be d805 afbd aab5 a6bd
00000230: 1b90 4dbe 0ef5 00be c2ed eabd 81d4 d4bd
00000240: 2cb3 2abe 8850 c63d 2633 79bd 2245 dd3d
00000250: f47d fdbd d6a2 9e3c e410 333e 593f 913b
00000260: 50a7 8c3e 00d4 25bd 89d3 ab3c cecd fa3c
00000270: 712c 39be c478 593e f00c f93d 3947 f3bd
00000280: 6c20 0c3d 07a0 e2bd 1131 1c3d 5e7b d1bd
00000290: 1e96 fbbd 8b62 e33d 5903 a93c 5349 32be
000002a0: 6238 c5bd 4ae7 48be f2af fc3c 694d 2c3e
000002b0: 921e 6f3d f7ab 603d fd1e 8dbd 4317 26be
000002c0: 7a9e 96bd 4fca c0bd 74a3 1a3e 3123 bb3d
000002d0: cc37 67bd dfe6 283e e482 b1bd 17c0 4cbd
000002e0: 9e49 023e aa7c adbd 4404 3a3d 7b1a 2ebc
000002f0: afd2 b4bd 67f2 1d3e 8c8e bd3d ff3b 8a3d
00000300: abdf 10bc feed 4a3d 28dd 08bd 403b 1fbc
00000310: 44d9 523d 977d 80bd ee95 b1bd e1bb fcbc
00000320: a90b 9b3b e82e 373d b7be dbbb e815 b63b
00000330: b27b b83d 8d8f 483c 4a84 7ebc 76f4 3b3d
00000340: 5604 303d 6d6c e53b ab87 33bc b779 e3bd
00000350: b495 883c 6ced 27bc 9f5b 86bd af6b 0cbd
00000360: 491a 1a3c 615d 1abb b363 8dbd dd7d f9ba
00000370: 5e80 4ebd c36d f23d 7f5f 103d 800c abbd
00000380: 94d8 87bd 6389 9cbd bc2d 7e3d dd04 c93d
00000390: 8346 15bd 3c49 84bd 4515 4abd 5411 b9bc
000003a0: 9f92 223e ba6f efbd 60cf a6bd 0f41 6d3d
000003b0: f7ce a53d f421 18be 70a1 cabd c09c e23d
000003c0: b56e 3cbe a253 86bd adc8 363d 6098 cd3c
000003d0: befb 8b3c 4ce3 d6bd 88db 3ebd eeec 2d3e
000003e0: 7a00 45be 84eb 5a3b f50e 61be 9a6a 84bc
000003f0: c0a5 fabd cd60 ff3d 0a99 a03c b25a f63c
0.15615413 -0.20345435 0.20463774 -0.040507536 -0.17296246 0.015260204 -0.17561966 0.10088561
-0.10831954 -0.024851983 0.022001706 0.06521922 0.050390277 0.105517216 -0.16667609 -0.13759008
0.099841066 -0.13814886 0.16361175 0.07111761 -0.065676324 0.10946406 -0.033991117 -0.061817747
0.12471736 -0.03422797 -0.069193 0.011909029 0.1463495 -0.13201043 -0.12573354 -0.17602453
-0.07812729 -0.034995697 0.14099437 0.17670666 0.1764105 -0.012417051 0.082001045 -0.057499424
-0.12230098 0.08105448 -0.20690013 -0.057231296 -0.13196379 0.0151024945 -0.10772869 0.025285766
-0.08637694 -0.09496124 -0.10354648 -0.081341326 0.024906993 0.15861812 -0.07138116 -0.109559424
-0.01644474 -0.22091897 -0.08774078 -0.01751952 0.04322277 -0.010656813 0.04973317 0.009049214
-0.010879726 -0.14535905 0.020510864 -0.18212704 -0.17972152 0.10184291 -0.01156473 0.017082637
-0.1686309 0.044166252 0.14043218 -0.14478175 0.03817971 -0.012482397 -0.1509346 0.0037587145
0.008198841 0.13180153 0.011115655 -0.14257063 0.09180247 -0.12267803 -0.11629607 -0.103736706
0.1080686 0.1767475 -0.14739984 -0.048235442 0.14274824 0.017925026 -0.029951781 -0.03820778
-0.15191716 0.08438561 0.17993706 0.005088366 0.07411495 0.08813969 -0.13142197 0.112167954
-0.0767173 -0.02952466 -0.09137044 0.07769481 -0.10313564 -0.12252203 0.17535655 -0.1291939
-0.043233294 -0.0066999225 -0.15226783 -0.1357992 -0.10153423 -0.0331245 0.18718041 -0.013782543
-0.1562436 0.14477679 0.015380313 -0.075023495 -0.23418967 0.19800057 -0.15760882 0.018753894
-0.04620721 -0.07980901 0.11232634 -0.18743956 0.0650206 0.017489227 0.1180566 -0.14988042
-0.0995759 -0.26384386 -0.085460365 -0.081401184 -0.20074503 -0.12593481 -0.1147113 -0.103920944
-0.16669911 0.09683329 -0.060839795 0.10804202 -0.12377539 0.019364756 0.17486912 0.0044326005
0.274714 -0.040485382 0.020974891 0.030615713 -0.1808336 0.21237475 0.12160671 -0.11878819
0.034210607 -0.11065679 0.03813273 -0.102286085 -0.12284492 0.1110278 0.02063148 -0.17410783
-0.09629895 -0.1961948 0.030845616 0.16826405 0.058378763 0.0548515 -0.06890676 -0.16219811
-0.07354446 -0.09413587 0.15101415 0.091375716 -0.056449696 0.1649432 -0.086675435 -0.04998788
0.12723395 -0.084710434 0.045414224 -0.010626431 -0.08829247 0.154245 0.09255704 0.067497246
-0.008842389 0.049543373 -0.033414036 -0.009718716 0.051476732 -0.06273954 -0.08671175 -0.030851306
0.0047316146 0.044722468 -0.0067060846 0.0055568106 0.09007968 0.012241256 -0.01553447 0.045887433
0.042972885 0.0070014508 -0.010957639 -0.111072 0.016672947 -0.010249477 -0.06560444 -0.034282383
0.009405681 -0.0023554193 -0.06903782 -0.0019034703 -0.05041539 0.11837342 0.035247322 -0.083519936
-0.06633106 -0.07643392 0.062055334 0.09815381 -0.0364442 -0.06459281 -0.04933669 -0.02259127
0.15876244 -0.11691232 -0.081450224 0.057923373 0.08096116 -0.14856702 -0.09894073 0.11065054
-0.18401606 -0.065589204 0.044624973 0.025097072 0.017087813 -0.10492572 -0.04659608 0.16984913
-0.19238463 0.0033404538 -0.21978362 -0.016164113 -0.122386456 0.12469635 0.019604225 0.030072544

model.4.bias f4 [32]
00000000: 8d6f 743d c0ad 15be 5a4c 2ebd 9500 883e
00000010: cabb 50bd 0acd 63be 2719 e13b f006 393d
00000020: ab9e f33c 2410 183d 6aa3 233b b221 573e
00000030: acff f7bd 4f91 fbbd 681c 61bd b06d c1bd
00000040: d684 7dbe 7a28 8ebc c46c d2bd 3f12 faba
00000050: dd93 0d3e d065 3b3c a30f c73e 56a8 babb
00000060: 7d68 893d 68d6 99bd 9e20 e6bd 46bc b13b
00000070: 203a 043e 72b6 4abd 954e 833e 459f c2bd
0.059676696 -0.14617062 -0.042553283 0.26562944 -0.05096034 -0.22246185 0.0068694535 0.04517263
0.029738745 0.037124768 0.0024969229 0.21008947 -0.121093124 -0.12283575 -0.05495873 -0.09444749
-0.24757704 -0.017353285 -0.10274652 -0.0019078924 0.13825937 0.011437848 0.38879117 -0.0056963367
0.06709383 -0.07511598 -0.1123669 0.0054240553 0.12912798 -0.0494904 0.2564589 -0.095030345

model.6.weight f4 [1, 32]
00000000: bd47 ed3d b8a9 0abd db74 6c3d f12f 29bd
00000010: e77d 933d e6ca ddbd 5eeb b93a 4de3 bd3d
00000020: b5b5 f33d df75 0f3e 61e4 9d3b 4349 b03d
00000030: a864 80bd 6498 8e3d d547 713d 7593 063e
00000040: dae6 7ebd c0fc c93d 3b20 e73d cddb 3539
00000050: 6355 cb3d c90f 873d 8a8b d5bc ecfb 5fbb
00000060: 5fab 603d 27cb debd 2144 f63c 33db 70bd
00000070: 1087 193d d039 6d3d 3acb 57bd 5afd 7ebd
0.115859486 -0.033853263 0.05772863 -0.041305486 0.07201748 -0.108297154 0.0014184525 0.0927187
0.11899892 0.14009808 0.0048184847 0.086077236 -0.06269199 0.0696266 0.058906395 0.13142188
-0.062231876 0.09862661 0.11285444 0.00017343387 0.099283956 0.06594808 -0.026067514 -0.0034177257
0.054850932 -0.10878592 0.030061783 -0.058802795 0.03748232 0.057916462 -0.052684046 -0.062253334
