results/csm_aae_20s/fold1/final_netD.pth (torch, 11663 bytes, 7 tensors)

model.0.weight f4 [32, 4]
000000 b4 a8 46 3e 84 a3 4b 3e 63 15 d6 be 89 5d c9 3e
       0.19400293 0.19886595 -0.41813192 0.39329174
000010 6f 98 89 be 0d 95 a4 be cf a5 7b be 8c 9d 57 be
       -0.2687411 -0.32144967 -0.2457497 -0.21056193
000020 07 da 77 3c 90 80 bd be 05 2b e3 be 14 82 d9 be
       0.015127665 -0.37012148 -0.4436876 -0.42482054
000030 f0 ef 4b be c5 a7 15 be 78 07 14 3f 05 66 49 be
       -0.19915748 -0.1461478 0.57823896 -0.19667824
000040 e8 f8 90 be a9 96 66 3e ae 64 b2 bd 53 e5 eb 3e
       -0.283149 0.2251841 -0.087106094 0.46073398
000050 63 0f ac be 17 48 27 3f 59 bf 8a 3d b3 5d ce 3d
       -0.3360549 0.65344375 0.06774778 0.100764655
000060 ca b1 5e 3e d6 cf 11 3e 2e 69 9c be 44 4c d4 be
       0.21747509 0.1423944 -0.30548996 -0.41464436
000070 8d ce 67 be 63 43 a6 3e 45 90 70 be 97 d8 3a be
       -0.22637387 0.32473287 -0.23492534 -0.18246685
000080 79 eb 83 3e d3 a2 5a 3e 27 b4 74 3e 34 6e eb be
       0.2576559 0.21351175 0.23896848 -0.45982516
000090 05 d7 8d 3c 2a f4 40 3e af da 8b be 7f f9 20 be
       0.017314443 0.18843141 -0.2731528 -0.15720175
0000a0 bd c3 ba 3e f6 7a 9d 3e d9 d2 b9 3e a1 2a 9c be
       0.3647746 0.30757874 0.36293676 -0.30501273
0000b0 8b 66 09 3e d7 54 63 3e bf 35 19 3d 6b 14 b7 be
       0.13418023 0.22200333 0.037404772 -0.35757765
0000c0 7d 67 fa 3e d0 65 c7 bd 50 ce 02 be 9d b2 cb be
       0.4890708 -0.09736216 -0.12774014 -0.3978471
0000d0 0d f5 60 3d 1d b5 aa 3e 9c f9 72 be 84 5c 35 be
       0.0549212 0.33341303 -0.23728031 -0.17711073
0000e0 8a 53 83 be c3 2e 2b be 15 2b a4 be 22 08 8b be
       -0.25649673 -0.16717057 -0.3206412 -0.27154642
0000f0 5e 24 17 3e ff 94 b0 3e 01 ad df bd 9b 5b 2a be
       0.14759967 0.34488675 -0.1092167 -0.16636507
000100 37 b6 e1 be 3a 80 19 3d 74 48 a1 bd 81 25 af be
       -0.4408433 0.037475802 -0.078751475 -0.342083
000110 93 df 24 bd fe 2a bd be 5d b8 2f bc fb f5 65 3e
       -0.04025228 -0.36946863 -0.010725108 0.22457115
000120 95 c1 81 3a 5c 9c f4 3c 83 dc 81 be 25 06 a3 be
       0.0009899611 0.029859714 -0.2536355 -0.31840625
000130 22 61 a8 3e c1 46 ce 3e 8e da 94 be 06 e7 9a 3e
       0.32886606 0.40288356 -0.29072994 0.30254382
000140 6a 08 9b be d5 46 d7 3e 5f 42 bc be af 0f 2b 3e
       -0.30279857 0.42046228 -0.36769387 0.16705202
000150 b1 c4 aa 3d 15 17 e0 3d 50 52 be be e3 27 e8 bd
       0.08338297 0.109419025 -0.37172174 -0.11335733
000160 b0 17 9e 3e 82 ec a2 be d2 77 5c be 4b 24 ff bd
       0.30877447 -0.31821066 -0.21530083 -0.12458094
000170 90 95 03 3f 9d 34 91 3e df 69 b1 bd ff aa b2 3d
       0.5140009 0.28360453 -0.086627714 0.08724021
000180 d1 1b 8f 3c d3 5c a6 bb 13 69 b1 3e fe b7 04 bd
       0.017469319 -0.0050769835 0.34650478 -0.03240203
000190 6f a6 ee bc f5 3c bd bd 33 71 92 be b6 6f 68 be
       -0.029132096 -0.09240142 -0.2860199 -0.22698864
0001a0 de 3b 14 3e 49 88 b0 3e db 20 1c 3d c4 fa f4 be
       0.14475963 0.34478977 0.03811727 -0.4784757
0001b0 16 14 41 be 54 8c e6 3e a9 8c 2f 3e 98 d6 aa 3e
       -0.18855318 0.45028937 0.17143501 0.33366847
0001c0 e0 39 41 bd 2e 77 81 3d 8d 8d a4 be 1d 46 ad bc
       -0.047174335 0.0632156 -0.32139245 -0.021151597
0001d0 67 bd 88 be bf ac 0f be 7f d5 59 bd d4 ad ee 3e
       -0.26707003 -0.14030741 -0.05318212 0.46616995
0001e0 c7 8d 8c be 7c d8 ad be 06 75 bc be e4 41 23 3e
       -0.27451918 -0.33954227 -0.36808032 0.15943104
0001f0 10 37 87 3e 36 e8 51 be b5 73 62 bd 2d 63 a6 3e
       0.26409197 -0.20498738 -0.055286128 0.3249754

model.0.bias f4 [32]
000000 70 89 c5 be ec 17 d4 3e b0 cc 47 3e 3d ad 1c be
       -0.3858142 0.414245 0.19511676 -0.1530046
000010 1d 3e 57 bd 8d f9 65 3e 6d 3c 5b 3e c1 6f d1 bc
       -0.05254947 0.22458477 0.2140977 -0.025565984
000020 c7 5c 14 be 08 a2 3c 3e 06 d0 09 3d a4 02 cd 3e
       -0.14488517 0.18421185 0.033645652 0.40041077
000030 b9 21 c0 be 69 28 b0 bd 4b a9 50 3e 30 75 83 be
       -0.37525728 -0.086014576 0.2037708 -0.25675344
000040 38 fb 08 bf f3 60 95 3e 15 e9 17 3d 44 56 4f be
       -0.5350833 0.2917553 0.03708752 -0.20247751
000050 eb 0a 7c 3e b9 6e 04 3d 9e ba 1f 3f fd a6 1d be
       0.2461354 0.032332156 0.6239413 -0.15395732
000060 c3 d0 03 3e 26 e5 76 bd 2c 58 b6 3e 5d 3f f6 be
       0.12872605 -0.060277127 0.35614145 -0.48095217
000070 e9 7c e2 be 46 38 73 bd 7f a1 10 bf f4 03 9d be
       -0.44235924 -0.05937984 -0.56496423 -0.30667078

model.2.weight f4 [32, 32]
000000 72 46 89 3e fa 66 44 be 18 ee 27 be 6a c0 b6 3c
       0.26811558 -0.19179907 -0.1639942 0.022308547
000010 1a 40 e8 3d 4b 2e b4 bd 23 d9 99 3c b8 65 01 3d
       0.113403514 -0.08797892 0.018780297 0.031591147
000020 c7 1a 5d 3d d7 40 04 be 8e 1f 53 bd b7 39 1e be
       0.053980615 -0.1291536 -0.051543765 -0.15451704
000030 e0 5b 7a 3d 57 64 e8 bc c7 e3 5d be 44 51 a0 3d
       0.061122775 -0.028368158 -0.21668921 0.07828
000040 7f d1 33 be 86 39 2a bd 7f e0 af bc f8 71 49 3e
       -0.17560385 -0.041558765 -0.021469353 0.19672382
000050 81 e0 af bd bc 6e d6 3c 81 99 26 be 52 5f b2 3d
       -0.085877426 0.02617585 -0.16269495 0.08709587
000060 90 31 b2 bd 7d 71 b9 bd c0 9c 60 be f7 fe 2c 3e
       -0.087008595 -0.09054849 -0.21934795 0.16894136
000070 9c 6f 4f 3b 83 60 ac 3d 95 df 55 3e 2a d7 ad 3c
       0.0031652218 0.08416846 0.20886071 0.021220762
000080 52 c9 d9 bd 9a e1 22 3d 4a b9 fd 3d e6 fd d9 3d
       -0.10634102 0.03976593 0.12388857 0.106441304
000090 5d 90 48 bd 89 b2 12 bd 8a 78 b6 3d e6 12 f6 3d
       -0.0489658 -0.035814796 0.0890971 0.12015323
0000a0 5a 0e 02 be 60 97 92 bb 12 c7 96 3d 4e 33 4f be
       -0.12700787 -0.0044736117 0.073621884 -0.20234415
0000b0 ce 27 be bd 4c c2 5d 3d 0c af 1b bd 85 de 37 3d
       -0.09284936 0.054140374 -0.038008735 0.044889946
0000c0 74 d9 55 be c4 75 78 bb 09 85 00 be 75 98 af bd
       -0.20883733 -0.003791199 -0.12550749 -0.08574001
0000d0 72 0f 4c bd be 2a 63 3d 78 17 7e bd 9d 59 26 be
       -0.049819417 0.055460684 -0.0620341 -0.16245122
0000e0 50 5b e9 3c 5c 10 b9 bd 99 fe c9 bd d6 72 3a be
       0.028485924 -0.090363234 -0.09863014 -0.18207869
0000f0 9e e5 ea bb 47 70 ec bd 0d f3 3c 3e 40 99 2f be
       -0.007168486 -0.11544853 0.18452092 -0.17148304
000100 ec f5 b7 bd 07 ee 5d 3d 7d 12 a6 bd 6b f5 96 be
       -0.08982453 0.05418208 -0.08108995 -0.29484114
000110 be ac 9f 3d ad e1 10 3e 94 c7 95 3e a7 42 12 3d
       0.0779662 0.14148588 0.2925383 0.035708096
000120 80 2e 8f bc 8e c0 e3 3d fe 3a de bd ab 8e 8c bb
       -0.017478228 0.11120711 -0.108510956 -0.0042894683
000130 3f 09 93 3d bf bf 19 3e 2f a4 17 bd ba fc 40 3e
       0.07179498 0.15014552 -0.037021812 0.18846408
000140 59 4d d4 3d 92 b7 1a be b6 2b 52 3e 51 0e e9 3c
       0.103663154 -0.15109089 0.20524487 0.02844921
000150 78 ef 92 bd f0 e7 38 3e 47 af 2d 3e 49 08 75 3e
       -0.07174581 0.18057227 0.16961394 0.23928942
000160 7c f7 fe bd 93 87 b6 3d 19 ba 00 3e 09 4c 0f bd
       -0.12449548 0.089125775 0.1257099 -0.034984622
000170 e1 f7 44 3d 0a 4e ab bc 07 26 64 3a 19 47 07 3c
       0.04808796 -0.020911235 0.0008703176 0.008256697
000180 55 d3 b9 3d f7 5f 9d bd 09 79 ee bd cf 8d ac 3d
       0.090735115 -0.076843195 -0.116441794 0.08425485
000190 45 bc 1c be 09 55 f7 bd 34 69 a7 bc f6 77 35 3d
       -0.15306194 -0.12076766 -0.020435907 0.044303857
0001a0 9c 38 2c 3e 2c c1 26 3e 8d 57 d3 bd 1a 6b 9a 3d
       0.1681847 0.16284627 -0.10319433 0.07539959
0001b0 db 0e e8 bd 63 c8 03 3c c6 96 88 bc ad c9 e8 3c
       -0.113309585 0.008043381 -0.016673457 0.028416479
0001c0 40 a7 83 3d cc 8d 1c be b0 8e 97 3d 19 f9 ce bd
       0.06428385 -0.15288466 0.07400262 -0.10106105
0001d0 9d 9f 5f bc 0a 7c 24 3c e9 6e 54 3e 98 13 89 3d
       -0.013648895 0.010039339 0.20745434 0.0669319
0001e0 4d 8c 9d bc 67 45 23 3d 11 2e 8d 3c 96 d9 ce bd
       -0.01923194 0.03986111 0.01723388 -0.10100095
0001f0 71 21 18 be 1a a6 dd bd 1d 29 b5 bd 68 b8 06 be
       -0.14856507 -0.10822697 -0.08845732 -0.13156283
000200 69 ae 4b 3d 15 0b de 3d 17 2b 35 bd d6 dd f9 bd
       0.049726877 0.108419575 -0.044230547 -0.12200515
000210 ee 24 97 3d 65 66 d9 3d e9 b0 1d bc 06 e6 af bc
       0.07380091 0.10615233 -0.009624698 -0.021471988
000220 8e aa 4c bb 51 ad ad bd bf e8 99 3c df 0c b0 3d
       -0.0031229588 -0.08480323 0.01878774 0.08596205
000230 05 34 e0 bc 5c 09 b7 bd 1f d4 16 3d a7 42 7e 3c
       -0.027368555 -0.08937332 0.03682339 0.015518821
000240 b0 3d 4d 3e 4a 91 d7 3d 86 ca 2a 3e d2 85 05 3e
       0.20043063 0.105257586 0.16678819 0.1303933
000250 3a 5e 32 be 0d b9 f8 bd 1c e0 85 3d bd 21 5a 3e
       -0.17418757 -0.12144671 0.06536886 0.21301933
000260 51 98 dd 3d 2b 22 31 3d 62 fe ec bd bd 36 99 bd
       0.10820068 0.043245476 -0.11571957 -0.074811436
000270 e7 05 2c bc cd ee 1d 3e 28 54 e7 bd 4e 76 3c 3e
       -0.010499454 0.15423127 -0.112953484 0.18404505
000280 d3 e6 3e 3e 0b 21 86 bc 65 b1 c8 3d b9 62 f5 3d
       0.1864274 -0.016373178 0.0979946 0.119817205
000290 ba c1 9b 3d 4a 80 e6 bb 72 d7 86 3d 91 db 25 3d
       0.0760531 -0.007034336 0.06584062 0.040492598
0002a0 fe ee 6f 3d 77 f4 ad 3d 81 a0 85 bd f2 98 c8 3c
       0.05857753 0.084938936 -0.06524754 0.024486993
0002b0 f3 a8 a0 3d 8d 72 1c 3d 4b 98 f6 3a 0a b5 fe bc
       0.078447245 0.03819518 0.0018813697 -0.031092186
0002c0 f9 28 d3 3d 0b 8e d2 3d 8a c4 3c 3e d4 9c 7d bc
       0.10310549 0.10280999 0.18434349 -0.015479285
0002d0 0e d3 8b bd 27 da 93 3d c7 8d 16 3d fd eb 4c bd
       -0.06827365 0.07219344 0.036756303 -0.050029743
0002e0 ff 89 b7 3d c1 f5 82 bd 4b 74 38 3e 32 4d c5 bd
       0.089618675 -0.0639453 0.18013112 -0.096338645
0002f0 fb e3 37 bc be c4 cf 39 43 81 5a bc c9 02 47 3d
       -0.011223788 0.000396287 -0.013336482 0.04858664
000300 e3 08 86 3e ad 08 0f be e3 5b b7 3c 1d f8 07 be
       0.26178655 -0.13968153 0.022382682 -0.13278241
000310 ff d8 f7 bc ea b6 22 3d 97 ab 0e 3e 64 be 44 3e
       -0.030254839 0.03972522 0.13932644 0.19213253
000320 fe 5c 13 3d 53 43 46 3e 0a f3 34 bd 2a 52 79 bc
       0.035977356 0.1936162 -0.044177093 -0.015217343
000330 e2 44 70 bd 4f e2 d7 3d de a1 03 be 4a 56 c4 bd
       -0.05865944 0.10541212 -0.12854716 -0.09586771
000340 d8 15 53 bd aa 1b 8b bd 18 b9 6f 3d bd a5 74 3e
       -0.051534504 -0.06792386 0.05852613 0.23891349
000350 c1 96 71 3e 75 79 7d 3d 4a d2 5b be aa a8 04 3c
       0.23592664 0.06188341 -0.21466938 0.008096853
000360 cf 2e 3b 3d 50 ab 46 bd 59 01 9e bd 51 d6 73 3d
       0.045698937 -0.04850322 -0.07715101 0.05953056
000370 a8 ad 71 3d e3 dd dc bd 7b 90 1f 3e 03 18 98 3d
       0.059003502 -0.10784509 0.15582459 0.07426455
000380 74 03 23 3d 37 e2 1d be 06 e8 79 be 9b 58 f7 3c
       0.039798215 -0.15418325 -0.24404916 0.030193618
000390 9e 5e 7e 3e d2 66 4f 3d 31 29 41 bd 89 04 31 bd
       0.24840781 0.050635166 -0.047158424 -0.043217216
0003a0 fa de f1 bc ed 8a 18 3d 0a 50 e0 3d fa 44 d8 bd
       -0.029525269 0.037241865 0.10952766 -0.10560031
0003b0 b9 b4 09 be 8c 0d d8 bc a9 f6 74 be 4f 78 f5 3c
       -0.13447846 -0.026373647 -0.23922218 0.029964594
0003c0 24 7d 1e bc 9e 35 d2 3c 3f fc 5a 3d 69 35 82 3d
       -0.009673391 0.025660332 0.053463217 0.063578434
0003d0 50 23 77 3d 69 7a a0 bd 81 c3 46 bd 63 56 cb 3d
       0.06033641 -0.07835848 -0.04852629 0.09928586
0003e0 b3 bb 6c bd 84 07 47 bd 5d bd e4 bd e2 ec db 3e
       -0.05779619 -0.04859115 -0.11168931 0.42954165
0003f0 a6 aa be bb b8 54 f7 bc bd fe e1 bc 65 4d b6 3d
       -0.0058186827 -0.030191764 -0.027587289 0.089014806

model.2.bias f4 [32]
000000 67 00 b3 3d 02 e1 b7 bd a1 bd 3e be 37 ee bd bd
       0.08740311 -0.08978464 -0.18627025 -0.092739515
000010 56 4e 32 bc 04 7e 3d be e6 a6 43 be dd 82 26 be
       -0.010882935 -0.18505102 -0.19106635 -0.16260858
000020 51 ce dc 3b 01 71 22 3d 2b 23 9f bc 58 10 9e be
       0.006738462 0.03965855 -0.01942595 -0.30871844
000030 db 41 c5 bd aa 2e 46 be 42 8c 30 be b2 4e 8c be
       -0.096317016 -0.19353738 -0.17241004 -0.2740379
000040 22 a2 01 be 67 38 b5 bd 44 02 4d bd 13 bd 1c be
       -0.12659505 -0.088486485 -0.05005099 -0.15306501
000050 1e 42 65 bd 1d cb 61 be 9b 24 34 3d b5 61 8a bd
       -0.055971257 -0.22050138 0.043980222 -0.067569174
000060 dc 2c d5 bd 4e a5 43 bd 49 8f 09 be 42 9a 95 be
       -0.10408947 -0.04776507 -0.13433565 -0.29219252
000070 91 3b 9c bd 6f a6 0e 3d a0 62 28 be a8 ab 7a 3b
       -0.07628549 0.034826692 -0.16443872 0.0038249288

model.4.weight f4 [32, 32]
000000 fe aa 48 3d 78 1d 10 3e 29 fb 98 ba b9 3b 36 bd
       0.048991196 0.14073741 -0.0011671531 -0.04449055
000010 46 a9 4a 3e 6b fd 3a 3c f6 db 0c be 7c 95 2d be
       0.19791135 0.011412959 -0.13755783 -0.16951555
000020 e8 a6 c6 3c 1b df 12 3e 3b 01 a5 bd f3 f4 06 3d
       0.024249509 0.1434292 -0.08056875 0.032948446
000030 ed 65 a6 3d a3 94 d1 bd 6b 5b de bd 40 1e f8 3c
       0.081249095 -0.10233428 -0.1085728 0.030287862
000040 e5 af 12 3d 4b ca d7 3d 84 01 eb bd 11 0d 51 3e
       0.035812277 0.10536631 -0.114748985 0.2041514
000050 8d 75 3c be 11 35 19 3d 7a 58 19 3e ee 93 b6 3d
       -0.18404217 0.037404124 0.14975157 0.08914934
000060 28 89 df 3c 11 df 10 bd 53 ae aa 3d 0f 02 ad bb
       0.02728708 -0.035368983 0.08334031 -0.0052797864
000070 db b7 1e 3d c2 3c 11 3e 6d 5b a2 bd 69 f0 2c be
       0.038749557 0.14183334 -0.07927594 -0.16888584
000080 e1 26 74 3e f5 5d 5e bd 0d 3d 61 bc fd cc 9e 3d
       0.23842956 -0.054288823 -0.013747466 0.07753942
000090 69 9d bb 3d 49 6e c0 3d c9 16 47 3e d5 c8 e4 3d
       0.09160883 0.09396035 0.19442286 0.11171118
0000a0 c2 99 87 3d 76 40 11 3d f4 a7 32 bb 7b 0a 84 bc
       0.06621124 0.035461865 -0.0027260752 -0.016118279
0000b0 10 21 30 3d 6f 6c 9e 3c 64 f6 55 bc 3c c4 df bd
       0.04300028 0.019338815 -0.013059232 -0.109261006
0000c0 fb e5 06 3e e9 a0 80 bc b8 35 8a 3d 21 1e 52 bd
       0.13173668 -0.015701728 0.06748527 -0.051298264
0000d0 6e 45 83 3d b1 6f 41 bd ed dc bd 3c ab b8 b7 3d
       0.06409727 -0.047225658 0.023176635 0.089707695
0000e0 59 71 68 3e 02 d2 4f 3d d9 fe f4 3c 2b 8a 9c bd
       0.22699489 0.05073739 0.029906677 -0.07643541
0000f0 76 53 10 be ac 08 a8 3d d8 e1 c7 bd 7a 7f 2b 3e
       -0.14094338 0.08204779 -0.09759873 0.16747847
000100 f3 1d 20 bb 90 2c 48 bd 4d 6c ba 3d a1 bd 7c 3d
       -0.0024431914 -0.048870623 0.09102688 0.06170428
000110 0a c0 41 3d 74 8a 5f 3e 35 05 bc bc 8a de 7d 3d
       0.047302283 0.2183016 -0.022951702 0.061979808
000120 d3 9f 69 bd 41 f6 df 3d 6a 46 f0 bd 19 fa bc 3d
       -0.057037186 0.10935641 -0.117321804 0.0922739
000130 a3 5a 29 bc 40 bd 03 bd a8 5e 06 bd e1 09 8d 3d
       -0.010336551 -0.032162905 -0.032805115 0.0688665
000140 90 80 e6 3d 45 94 d4 3d 07 5d 3b 3e 89 e2 10 3d
       0.1125499 0.10379843 0.18297206 0.03537229
000150 00 aa 91 3a 6c 51 21 3d 20 2e f6 3d 79 ab 29 be
       0.0011113286 0.03938429 0.120205164 -0.16569318
000160 c0 ba 40 3e e0 b9 ce 3d 70 c8 fa bd 86 2f 5e 3e
       0.1882124 0.100940466 -0.12245262 0.21697816
000170 35 32 8c bd 3a 00 f0 3d 58 e3 a5 3c b0 f8 f0 3d
       -0.06845514 0.11718793 0.020250008 0.117661834
000180 72 eb 82 bc d8 f7 f9 bc c3 d9 91 3d 5a 94 6c 3d
       -0.01598141 -0.030513689 0.07121613 0.057758667
000190 4a 48 4c bd 7e 38 73 3d 2a 61 8b 3e 17 49 c2 bd
       -0.049873628 0.059380047 0.27222568 -0.09486597
0001a0 52 15 08 3e 25 10 e3 3d b7 23 44 3d 5f 73 0e bd
       0.13289383 0.11087064 0.047885623 -0.034777995
0001b0 59 ae ee 3d 1e 55 d3 bc 1a 0d f4 3d 3b 5d 1d bd
       0.11654348 -0.025797423 0.119165614 -0.03841899
0001c0 88 32 14 3e 2a e6 1d 3e e1 1e 15 bd 59 21 da bc
       0.14472401 0.15419832 -0.0364064 -0.02662723
0001d0 d2 61 dc 3d d1 d3 da bd f9 56 3f 3e c5 c6 93 3d
       0.10760845 -0.10684932 0.18685521 0.07215647
0001e0 cc 59 8d 3d e7 41 f0 bd 6f 90 be 3d 95 3c ef bd
       0.06901893 -0.1173132 0.09304892 -0.11681477
0001f0 2d 06 06 bc e7 38 2e be fb 38 b1 3d 1a c1 32 be
       -0.008180183 -0.17013894 0.08653446 -0.17456475
000200 66 38 33 be 54 db 85 3c 0e 5c 48 3d 22 43 b1 3a
       -0.17501983 0.016339935 0.048915915 0.0013524035
000210 bd cc 27 3e 9c 95 98 3c 41 81 f8 3c 47 f1 b5 bb
       0.16386695 0.018626027 0.03033507 -0.005552444
000220 2c 3a 4a 3e 07 25 26 3e 88 11 73 bd 4b 31 ab bc
       0.19748753 0.16225062 -0.05934289 -0.020897528
000230 70 d0 85 3e c5 d7 1a 3e 97 0c 51 bc fc a3 b1 bd
       0.26135588 0.15121372 -0.012759349 -0.08673856
000240 a4 d8 0f 3e 49 82 78 3e da 22 3f 3d cf 24 24 3e
       0.14047486 0.2426845 0.046664096 0.16029666
000250 90 d8 37 bd 06 d3 4a 3d 28 8f 2a 3d bd ba 3d 3d
       -0.044884264 0.049517654 0.04164043 0.046320666
000260 6f 1d 56 3d e2 22 8a bd a7 38 b2 3d 6f b8 45 3d
       0.052274164 -0.067449346 0.08702212 0.048271593
000270 0b d8 95 bc d3 06 08 3d a1 03 1e 3e 54 c9 4c be
       -0.018291494 0.033209633 0.15431072 -0.19998676
000280 4a 75 00 be 3f bf 83 3e d5 c3 51 3d da dc 04 3e
       -0.12544742 0.25731847 0.05121215 0.12974873
000290 f8 48 2e be 88 b9 62 3d 25 e8 1c 3d d6 aa a6 bd
       -0.17020023 0.055352718 0.038307328 -0.08138053
0002a0 ac 74 8e 3d 92 24 dd bd ff bd 01 3d 65 b3 f4 3c
       0.06955847 -0.10797991 0.031675335 0.029870698
0002b0 f8 28 5b 3e a5 b7 de bb 22 b9 20 3e c0 28 7f 3d
       0.21402347 -0.0067967945 0.15695623 0.06229472
0002c0 de 38 31 be fc ae a2 3c 98 0e e1 bd b9 19 df bd
       -0.1730685 0.01985883 -0.10989112 -0.10893578
0002d0 45 da d8 bd d1 dc af bd fc 3c ff bc e8 4b b1 3d
       -0.105885066 -0.08587039 -0.03115701 0.08657056
0002e0 9e 6e ce bd ca 4b 8a 3e 47 ea 76 bd b9 0f 6b bd
       -0.10079692 0.27010947 -0.060282018 -0.05738804
0002f0 49 75 59 bd c9 8d 21 be 88 83 a5 bd 64 1e 74 3d
       -0.053090367 -0.15776743 -0.08081728 0.059599295
000300 2a 97 e4 bd 3e 6b 53 3d ef 1b 2e be d4 d6 ae bc
       -0.11161645 0.051615946 -0.17002843 -0.021342672
000310 57 89 8f bd 8f 2f da bd 4f 30 f5 3d b3 72 ad bd
       -0.07008617 -0.10653602 0.11972105 -0.08469143
000320 b2 49 25 bc ad 84 57 be 22 4a 88 3d 42 ff 83 bc
       -0.010088371 -0.21046706 0.06654765 -0.016112927
000330 07 a8 40 bc 94 be 72 3c 81 e5 de bd a0 a5 41 be
       -0.011758811 0.014815945 -0.10883618 -0.18910837
000340 fa 82 08 3a e9 ef 1d be ff 3a 6a bd 81 34 03 be
       0.00052075053 -0.1542355 -0.05718517 -0.12812997
000350 a5 a1 95 3d d1 80 17 bc 9e a3 81 bd 13 bc 9e 3d
       0.07306222 -0.009247021 -0.063300356 0.07750716
000360 95 0a 6e 3d 5a 54 c7 bc 93 94 bb 3d cb c9 dc 3c
       0.05811556 -0.024332214 0.09159198 0.026951691
000370 89 76 4e 3d d7 c1 17 bc 74 68 f0 bb dd 9c 6b 3d
       0.050406013 -0.009262524 -0.0073366705 0.057522643
000380 30 e2 df 3d 40 29 bf 3d 81 79 7c 3e ad 53 e4 3c
       0.10931814 0.0933404 0.24655725 0.027871931
000390 dc a2 d0 3c 5e 82 e5 bc 1f c7 b1 bc 6a 80 3c 3e
       0.025468282 -0.028016265 -0.021701394 0.18408361
0003a0 24 2a 85 bb ee 88 21 3e 07 d3 15 3d 3e 08 5a 3d
       -0.0040638614 0.15774891 0.036578204 0.053230517
0003b0 22 09 48 3e 0b 91 2f be ce 43 8f bd 22 76 7e bc
       0.19534734 -0.17145173 -0.069953546 -0.015531095
0003c0 e0 43 ba bc 9e 73 0c 3e 9f e2 3a be 3f b0 54 3e
       -0.022737443 0.1371598 -0.18250512 0.20770358
0003d0 c4 65 97 bc d4 e9 00 be 04 af ae 3d ad 06 aa 3d
       -0.018481143 -0.12589198 0.08529475 0.083020546
0003e0 c7 91 1d be be a5 d1 bd 13 ba 94 3d c9 a0 c2 bd
       -0.15387641 -0.10236691 0.07262053 -0.095033236
0003f0 0f a0 f2 3c a0 b7 d9 bd 29 93 e2 3d 89 e6 5b be
       0.029617338 -0.10630727 0.11063225 -0.21474661

model.4.bias f4 [32]
000000 27 1f a3 3b 8a 3c 01 bd 66 0e c7 3c da ae fa bd
       0.004978079 -0.031551875 0.024298858 -0.122403815
000010 46 f0 00 be cb 51 36 be 19 05 8c bd 53 ec c1 3d
       -0.12591657 -0.17804639 -0.0683691 0.094689034
000020 9b 63 cf bd 1c 5d 7f bd 58 98 09 be 3e f3 40 bd
       -0.1012642 -0.062344655 -0.13437021 -0.047106974
000030 08 c7 33 be 16 cd 18 be 1e 3c 4a 3d de 10 f9 3b
       -0.17556393 -0.14921984 0.04937374 0.0076008877
000040 cc 10 17 be c0 47 8c bd de e5 de bc e0 c4 77 3d
       -0.14752501 -0.06849623 -0.027209219 0.06049049
000050 69 f4 0d 3d d6 3b 49 3d b8 78 42 ba 6e a8 1b 3d
       0.034656916 0.04912933 -0.0007418501 0.038002424
000060 e8 7d b4 bd 54 36 b1 bc a8 08 b5 bc 7b db 09 be
       -0.08813077 -0.021632351 -0.022098854 -0.13462631
000070 67 74 8f bd ec 19 e2 bd 41 f4 5f bb 65 45 a4 3c
       -0.07004624 -0.110401005 -0.0034172686 0.020052621

model.6.weight f4 [1, 32]
000000 e0 b7 2d bb 65 db 85 3c e5 e7 bf 3b 62 7f 9e bb
       -0.0026507303 0.016339967 0.0058565014 -0.0048369626
000010 6e d3 f0 3b 07 f3 a8 3c d7 66 62 39 0d 64 a6 bc
       0.007349423 0.020623697 0.0002159135 -0.02031138
000020 0c d5 c7 ba 4f 9e e2 bb cf c7 73 3c be ce 8d 3b
       -0.0015245988 -0.0069158445 0.014879181 0.004327624
000030 c7 fd 90 3c e9 dc d3 bb 4b 17 25 bc 57 4e 9b ba
       0.017699135 -0.0064655435 -0.010076354 -0.0011848909
000040 39 08 f1 3b 72 dd e6 bb 8d fb f6 bb 4b 37 df 3b
       0.0073557165 -0.0070454413 -0.0075373114 0.0068120114
000050 b5 38 b2 bc 71 13 2b 3c 93 c1 b4 b9 97 c0 c4 3c
       -0.021755556 0.010441647 -0.000344765 0.024017615
000060 db b6 c9 3b 16 5e d9 3b 24 2d fd bb 90 19 ea bc
       0.0061558313 0.0066335304 -0.0077263284 -0.028576642
000070 fe 59 40 bb 66 37 eb bb 0e ec 3b 3c 27 a4 1a bc
       -0.0029350515 -0.007178235 0.011469854 -0.009438551
